…
ense(10, activation='softmax')\n","])\n","model.compile(optimizer='adam', loss='sparse_categorical_crossentropy', metrics=['accuracy'])\n","model.summary()\n","model.fit(training_images, training_labels, validation_data=(val_images, val_labels), epochs=20)\n","\n"],"execution_count":null,"outputs":[{"output_type":"stream","text":["Model: \"sequential_1\"\n","_________________________________________________________________\n","Layer (type)                 Output Shape              Param #   \n","=================================================================\n","conv2d (Conv2D)              (None, 26, 26, 64)        640       \n","_________________________________________________________________\n","max_pooling2d (MaxPooling2D) (None, 13, 13, 64)        0         \n","_________________________________________________________________\n","conv2d_1 (Conv2D)            (None, 11, 11, 64)        36928     \n","_________________________________________________________________\n","max_pooling2d_1 (MaxPooling2 (None, 5, 5, 64)          0         \n","_________________________________________________________________\n","flatten_1 (Flatten)          (None, 1600)              0         \n","_________________________________________________________________\n","dense_2 (Dense)              (None, 20)                32020     \n","_________________________________________________________________\n","dense_3 (Dense)              (None, 10)                210       \n","=================================================================\n","Total params: 69,798\n","Trainable params: 69,798\n","Non-trainable params: 0\n","_________________________________________________________________\n","Epoch 1/20\n","1875/1875 [==============================] - 5s 3ms/step - loss: 0.4951 - accuracy: 0.8222 - val_loss: 0.4338 - val_accuracy: 0.8341\n","Epoch 2/20\n",
…
