…
age.googleapis.com/tensorflow/tf-keras-datasets/t10k-labels-idx1-ubyte.gz\n","8192/5148 [===============================================] - 0s 0us/step\n","Downloading data from https://storage.googleapis.com/tensorflow/tf-keras-datasets/t10k-images-idx3-ubyte.gz\n","4423680/4422102 [==============================] - 0s 0us/step\n","Model: \"sequential\"\n","_________________________________________________________________\n","Layer (type)                 Output Shape              Param #   \n","=================================================================\n","conv2d (Conv2D)              (None, 26, 26, 64)        640       \n","_________________________________________________________________\n","max_pooling2d (MaxPooling2D) (None, 13, 13, 64)        0         \n","_________________________________________________________________\n","conv2d_1 (Conv2D)            (None, 11, 11, 64)        36928     \n","_________________________________________________________________\n","max_pooling2d_1 (MaxPooling2 (None, 5, 5, 64)          0         \n","_________________________________________________________________\n","flatten (Flatten)            (None, 1600)              0         \n","_________________________________________________________________\n","dense (Dense)                (None, 20)                32020     \n","_________________________________________________________________\n","dense_1 (Dense)              (None, 10)                210       \n","=================================================================\n","Total params: 69,798\n","Trainable params: 69,798\n","Non-trainable params: 0\n","_________________________________________________________________\n","Epoch 1/20\n","1875/1875 [==============================] - 5s 3ms/step - loss: 0.4812 - accuracy: 0.8280 - val_loss: 0.3682 - val_accuracy: 0.8688\n","Epoch 2/20\n",
…
